output/final.ckpt (torch, 317987 bytes, 74 tensors)

inc.double_conv.0.single_conv.0.weight f4 [16, 1, 5]
00000000: d04c 843d f210 15bf fecc 3cbf 1c6d 0fbf
00000010: 5e42 babd d628 2b3c dc4e ee3e 9e79 c1be
00000020: 124f 5c3d 2cd1 43bf d86b 733e 5f3d db3d
00000030: 16f4 413e e5ad f23e 7bfe 6fbf e3d4 a8be
00000040: d7b4 10bf cd68 24be 8afa 24be 64e6 c83e
00000050: ef57 0bbf 0aba e7be 2f15 013e 3553 6c3e
00000060: 5219 2b3f 8456 d9be 56e0 20bf 2bb2 e53e
00000070: fc80 893e 0254 493e 4a44 17bf 1b77 de3e
00000080: a97b 1e3f 733c b6be d473 763e 3f78 d3be
00000090: 37d9 963c 63af 32bf cb78 cf3e e166 b8be
000000a0: d4d0 3d3f 603d a63d 54f7 573e 2bca 4fbf
000000b0: e56b a4be 2804 953e ed14 83be 0e3d 10bf
000000c0: 8270 023f fc2a d8bd caab 623e 5cb9 343d
000000d0: f5f3 30bf faf2 a03e eb67 f63d e46f e73e
000000e0: 6795 dcbd 1b86 05bf c009 3b3e 7fb9 a73e
000000f0: 0cec 2fbf fd75 07be 8dde 0a3e 43d9 1ebd
00000100: cdaa dd3d 84a5 ac3e 14f3 e13e 5202 acbe
00000110: a2a8 c43e 00ca 24bf f19a bfbe 68bf acbe
00000120: 5e0a 083f 65a6 93bd 9639 bc3e ab9c 2f3f
00000130: a66b 86bc 0e73 bcbe c982 65be bbfa 33bd
0.06459963 -0.5822898 -0.73750293 -0.5602586 -0.0909469 0.010446748 0.4654454 -0.377881
0.053786345 -0.76491046 0.23771608 0.10705065 0.18940768 0.47398296 -0.9374768 -0.3297492
-0.5652594 -0.16055603 -0.16111198 0.39238274 -0.5443105 -0.45259124 0.12605737 0.23078616
0.6683551 -0.4244882 -0.6284231 0.44862494 0.2685622 0.19660953 -0.59088576 0.43450245
0.6190744 -0.35592994 0.24067622 -0.41302678 0.018414123 -0.6979887 0.40521845 -0.3601599
0.7414677 0.08117175 0.21090442 -0.8116786 -0.32113567 0.29104733 -0.25601903 -0.5634316
0.50952923 -0.105550736 0.22135845 0.044122085 -0.6912225 0.31435376 0.120315395 0.45202553
-0.10770684 -0.52157754 0.18265438 0.3275871 -0.68719554 -0.13228603 0.13561459 -0.038781416
0.10823593 0.33720028 0.44130766 -0.3359552 0.38409907 -0.6437073 -0.37422898 -0.3373978
0.5314082 -0.072094716 0.36762685 0.6859843 -0.016408753 -0.3680653 -0.22413172 -0.043940287

inc.double_conv.0.single_conv.0.bias f4 [16]
00000000: 95f8 413d aa83 dbbd b4c3 863e 2293 443d
00000010: 2568 87be 999e 10bf 1109 b8bd 2289 0c3f
00000020: 9322 073e 2446 4abe 65eb 403f 2b08 b03d
00000030: eca1 eabe d6db 13be 9387 f23c 01f3 d73e
0.047356207 -0.10718472 0.26321185 0.04799188 -0.26446643 -0.56492 -0.08986104 0.5489675
0.13196783 -0.19753319 0.75359184 0.08595308 -0.45826662 -0.1443933 0.029605662 0.42177585

inc.double_conv.0.single_conv.2.weight f4 [16]
00000000: 24c4 e7bd ca8d ee3e c6d1 9e3f 7b4b 653f
00000010: 8b89 823f 494b 403f 2ef7 b33f 9ca7 1c3f
00000020: 5da8 703f 6d4b fb3e f28b f33f caca f83e
00000030: 2060 ab3e 9025 bd3f 97cc 9f3f 0894 953f
-0.11316708 0.4659255 1.2407768 0.895683 1.0198225 0.75114876 1.4059808 0.6119325
0.940069 0.49080983 1.9027083 0.48592216 0.33471775 1.4777088 1.2484311 1.16858

inc.double_conv.0.single_conv.2.bias f4 [16]
00000000: f857 8fbe 12fe ee3e d7a8 333f d399 8f3e
00000010: 65db b43e 74df b63e 46d7 30be 6b6f 0d3e
00000020: 91eb 7b3e 0fa1 b53e 4f01 3c3e 4522 2a3e
00000030: 31a1 4c3e e79a 0b3f e243 c53e 3efc 373e
-0.27996802 0.46678215 0.70179504 0.28047046 0.35323635 0.35717356 -0.1726962 0.13812034
0.2460158 0.3547444 0.18359874 0.16614635 0.19983365 0.5453324 0.38528353 0.17967317

inc.double_conv.0.single_conv.2.running_mean f4 [16]
00000000: 1185 263f 287d 703e 058b cf3e 4ea4 bb3e
00000010: 72f8 6c3e edf7 b73d f633 3d3e ea9d 2c3f
00000020: e745 da3e e9ae 923d 2b5e 433f 8e78 6d3e
00000030: 1440 ce3d 660f 2a3e 3855 663e a14a 013f
0.65046793 0.23485243 0.4053575 0.36648792 0.2314165 0.08982835 0.18476853 0.6742846
0.42631456 0.07162268 0.76315564 0.23190519 0.10070816 0.16607437 0.22493446 0.505045

inc.double_conv.0.single_conv.2.running_var f4 [16]
00000000: 7308 9b3f 4613 4c3e 4494 6a3e 87e1 b43e
00000010: a874 5f3e 9b5a 9e3d 6756 df3d 0b93 f73e
00000020: 2343 c43e de03 063d 38d1 043e c6d8 d83d
00000030: a538 c03d 7e5f d03d 2ad3 eb3d e3ae 6e3e
1.2111953 0.19929227 0.22908121 0.35328314 0.21821845 0.07732125 0.10905152 0.48354372
0.3833247 0.03271853 0.12970436 0.10588221 0.09385804 0.10174464 0.11514886 0.23308901

inc.double_conv.1.single_conv.0.weight f4 [16, 16, 5]
00000000: 11de 523e 9575 4a3e 56b4 523e eac8 a13e
00000010: 07f5 a63e b2ce 613b 2d53 55be d771 533c
00000020: 04ab 0c3e e8ca da3d 4a12 58be 5897 1ebd
00000030: 24c1 1dbb 7c14 ed3d 8ac2 063f 9f22 c53e
00000040: f7c6 cd3d bc49 283c 6eb5 c4bd 4914 42be
00000050: 39c3 823f b2b8 1c3f 6087 c93e 3741 b03e
00000060: 4263 b33c 04a7 5c3f 7ca3 c93e e591 863e
00000070: 0e0b 963e 94a7 c1bd 4c27 1cbe 5af5 2c3d
00000080: b8c8 2a3d afb6 983e 324a ea3e 8822 54be
00000090: 8833 363c 3853 08be ee19 b4be 6c8f abbe
000000a0: 20f4 a33e 57eb 71be eb83 f3bd 0833 3e3e
000000b0: 8ad0 b63e e526 c53e 121e ad3e 207f 693e
000000c0: 9d02 84bd c9d1 573e 5dbc b8bd 3a04 d6be
000000d0: f9ef e8be eaf0 96be 3d69 a6be e3fb bd3d
000000e0: 6906 9abd c312 1abd beed 1e3d 7427 0e3e
000000f0: 075a 653e dafe 053c 95ee 023c ebe7 093d
00000100: 8f70 9fbd c5db dcbd 484d 29be bab6 88bd
00000110: 2d76 0d3f f8c2 963e 74fe 123f 2e86 5e3e
00000120: d911 883e e39b ec3d 59d2 1ebe c155 89bd
00000130: b3f2 1fbf 8bc6 dfbe e35c 2abe be35 a1bd
00000140: 0902 13be a88e 39be 5807 383d 7605 f33c
00000150: 0336 84bd d9c0 1f3e 58f0 a6be ad81 4ebd
00000160: 4c8e cdbc 0aed 383e 8622 6cbf 003f 95bd
00000170: f683 e73e 6c4c 433d 1981 cdbe cf61 07bf
00000180: 3e2e 163e 03b7 56be f343 afbd a49b dabb
00000190: f236 f4be 0049 c3bd 685c 2cbe 0af9 ddbe
000001a0: 0c54 24bf 1181 17bd f52e 81be 911b 07be
000001b0: b6a6 043e 41be e53d 8e78 303d 7f08 0bbe
000001c0: 319e debe 49f7 f73d 4172 643d c18b d13d
000001d0: b7e5 973e 24a1 3e3d 49d1 623d 2811 853e
000001e0: 3989 89be 27d8 23bf e621 eabe 90d7 afbc
000001f0: 9019 553e f73a 753c e542 783e 27da 13be
00000200: 8814 f8be c547 343f 8b2f 043f a7e1 083f
00000210: fd00 d0be 4618 0dbf b0c7 403f af90 bebd
00000220: 4cc0 1a3e e627 febe 3c63 02bf 39ed e73e
00000230: da51 89be e82b 1cbe 8ed4 ec3c 5e4f e8bb
00000240: aa0d e0bb 373f 48bf a72d 1abe a1cd 66bf
00000250: cfb6 49be 40d1 fd3d 8d1d f5be 3660 5c3e
00000260: 952b 03bf 8ed9 a53e a770 e3be 9836 25bd
00000270: a3c8 7dbd 7b63 10bf b50d dabe b23c bb3e
00000280: c79f 2abe b0a2 863c 7917 203c 76e4 0b3d
00000290: b831 4e3d 564c aebe ccd3 193e 67c6 56bd
000002a0: 9f65 883c 1181 5abe 1230 5fbd 348f b93e
000002b0: 6eed e9be 61cd e4be 62c1 22be 1a04 123f
000002c0: 9d86 9e3e 55e3 be3e 2706 d33d a83d e33d
000002d0: ea33 bd3e 5dd0 453f 6fa2 313f 4dde 4a3e
000002e0: 6b67 04bf 450c 473d 51f3 753f c90b 713f
000002f0: 8d64 f53d 967e d0bd fd9a 5e3e f6bd 56be
00000300: c571 773d b3fa dfbe bf19 2abf ad76 9cbe
00000310: f948 0ebf 4a7a 99be 99f8 b7be 320a 86be
00000320: c6dd 3e3e 1115 12bd 1b50 e63e 0559 dbbd
00000330: 6d08 00be 86dc d33e a2af 5e3e 7e41 5d3d
00000340: acbf d6be 5178 21be 4a8b 0bbe 9bb0 123e
00000350: 4ef3 77be 9cd3 23bc f215 13bd 9522 f83d
00000360: bed8 0bbe 6ae0 9f3e fbcf 18bf 92fe 7dbd
00000370: c182 943e 720b cc3e b722 283f 986b bb3e
00000380: 07cc 12be beae dfbe 6cfe 053f 893e 9dbd
00000390: f27b c13d 6681 f2be fc1e ae3e a5ce 0b3e
000003a0: 20fc 053f c878 16bd 53d9 e33d c446 6c3e
000003b0: fa27 29be 5ad0 403e 3c16 9bbe 49b5 96be
000003c0: 095d f53c f5d7 883d 6fb6 bf3d 0ce4 973e
000003d0: 8513 763e 4c42 1bbd beae a3bd 0254 eb3d
000003e0: 42ed acbe 4997 07be 000a f93e b7c0 afbe
000003f0: 5cde fb3d a245 083d 7d6d 22be b6e2 2dbe
0.20592524 0.19771416 0.20576605 0.31598598 0.32608816 0.0034455475 -0.2083251 0.0129055595
0.13737112 0.106832325 -0.21100727 -0.03871855 -0.002407142 0.11576173 0.52640593 0.38502976
0.10047715 0.010271486 -0.096049175 -0.1895305 1.0215827 0.6121932 0.39361095 0.34424755
0.021897916 0.86192346 0.3938254 0.26283184 0.2930531 -0.09455791 -0.15249366 0.042226173
0.041695327 0.29826877 0.45759732 -0.20716298 0.011120684 -0.13312995 -0.35176033 -0.3350786
0.3202219 -0.23624931 -0.11890396 0.18574154 0.35705978 0.38506237 0.33812004 0.228024
-0.06445811 0.2107612 -0.090203024 -0.418001 -0.45495585 -0.29480678 -0.32502165 0.09276559
-0.07520754 -0.03761555 0.038800947 0.13882238 0.22397624 0.008178437 0.007991453 0.03366844
-0.07785141 -0.10784105 -0.16533387 -0.06675477 0.55258447 0.29445624 0.57419515 0.21730873
0.26576117 0.115531705 -0.15509929 -0.067058094 -0.62479705 -0.43706164 -0.16636996 -0.07871579
-0.14356245 -0.18120825 0.04492888 0.02966569 -0.064556144 0.1560091 -0.32605243 -0.050416637
-0.025092266 0.18059173 -0.9224018 -0.07287407 0.45217866 0.047680303 -0.40137556 -0.5288362
0.14666077 -0.20968251 -0.08557882 -0.006671386 -0.4769817 -0.09535408 -0.16832125 -0.43354064
-0.64190745 -0.03698832 -0.25231138 -0.1319411 0.1295422 0.11217929 0.04308372 -0.1357746
-0.43480065 0.12107713 0.055773024 0.10231734 0.29667446 0.046540394 0.05537537 0.25989652
-0.26862505 -0.640017 -0.45728987 -0.021465093 0.20810533 0.014967672 0.24244268 -0.14438687
-0.48453164 0.7042201 0.51635045 0.5346932 -0.40625754 -0.55115163 0.753047 -0.0930494
0.15112418 -0.49639815 -0.5093267 0.45298174 -0.2682026 -0.15251124 0.028909948 -0.0070895394
-0.0068375664 -0.7822146 -0.15056477 -0.90157515 -0.19698642 0.12393427 -0.47874108 0.21521077
-0.51238376 0.32392544 -0.44421884 -0.040335268 -0.06195892 -0.56401795 -0.42588583 0.36569744
-0.16662513 0.016434997 0.009771221 0.034153424 0.050340384 -0.34042615 0.150222 -0.052435305
0.01665002 -0.21338297 -0.054489203 0.36242068 -0.45688957 -0.44687942 -0.15894082 0.5703751
0.30962077 0.37282816 0.10303908 0.11095744 0.3695367 0.7727106 0.6938848 0.19811364
-0.51720303 0.048595686 0.96074396 0.9415861 0.11982069 -0.10180394 0.21738811 -0.20970902
0.060411233 -0.43745956 -0.66445535 -0.30559292 -0.555801 -0.29976112 -0.35931852 -0.26179653
0.18639287 -0.03566462 0.4498299 -0.107103385 -0.12503214 0.41379184 0.21746686 0.054017536
-0.4194311 -0.15768553 -0.13627353 0.14325182 -0.24213907 -0.009999182 -0.0359096 0.12115971
-0.136569 0.31225902 -0.59692353 -0.062010355 0.29006007 0.39852482 0.6567797 0.36605525
-0.14335643 -0.43688005 0.5234134 -0.07677943 0.09447469 -0.47364348 0.34008014 0.13653047
0.5233784 -0.03673628 0.11125436 0.2307387 -0.16519156 0.1882948 -0.302904 -0.29435185
0.02995159 0.066818155 0.09360968 0.29666173 0.24030884 -0.037905023 -0.07992314 0.114906326
-0.33774763 -0.13241304 0.48640442 -0.34326717 0.12298271 0.033269532 -0.15862079 -0.16981015

inc.double_conv.1.single_conv.0.bias f4 [16]
00000000: 5718 bf3c bfd7 b3be fd1b 8ebe b35e 92be
00000010: a584 f1be 3b64 eebe 395a 33bf a62e e73e
00000020: c61c c0be 0292 d43c 9d89 acbe d6a8 debc
00000030: cca5 81bd 0725 353e 08f5 c83e dd66 13be
0.023327036 -0.3512554 -0.27755728 -0.28587875 -0.47171512 -0.46560845 -0.70059544 0.45152777
-0.37521952 0.025948528 -0.3369874 -0.027180117 -0.06330451 0.17689906 0.39249444 -0.14394708

inc.double_conv.1.single_conv.2.weight f4 [16]
00000000: 5157 bc3e d25b 8c3f 1d41 403f e939 903f
00000010: bca5 753f 6c6b 4a3f e57c 663f 15df 613f
00000020: 0adc 983f 8ccc c33f a727 8e3f c5fb 2f3f
00000030: 3b43 2c3f 7fe2 a13f 79c4 193f 69f5 a03f
0.36785367 1.0965521 0.75099355 1.1267673 0.95956016 0.7907016 0.90034324 0.8823102
1.194215 1.5296798 1.1105851 0.68743545 0.67290086 1.2647246 0.6006542 1.2574893

inc.double_conv.1.single_conv.2.bias f4 [16]
00000000: c631 9d3e af90 b5be ce9d ea3e 3e34 aebe
00000010: f681 0b3d 1b32 f1be 3f0f ffbe 2488 c13e
00000020: 6cf3 52be e545 083f fb6e 15bf 5319 eb3e
00000030: 8815 70bd 2299 023f 2e7d 9abe 9051 43be
0.30702037 -0.35461947 0.4582352 -0.34024233 0.034059487 -0.4710854 -0.4981632 0.3779918
-0.2060067 0.5323165 -0.5837247 0.45917758 -0.058614284 0.5101491 -0.3017363 -0.19074082

inc.double_conv.1.single_conv.2.running_mean f4 [16]
00000000: 853f 6940 0073 9b3f f383 ed3f 88d3 873f
00000010: fcfe c03f b851 353f e7f0 1b3f 7e34 2340
00000020: 9100 cf3e 1e2c b13f 062b e63f ff78 303e
00000030: 2387 e23f ffeb b43f 4952 453f 4723 943f
3.644502 1.214447 1.8555893 1.0611429 1.5077815 0.7082782 0.6091446 2.5500789
0.4043012 1.3841588 1.798188 0.17233656 1.769749 1.413452 0.7707868 1.1573266

inc.double_conv.1.single_conv.2.running_var f4 [16]
00000000: 45c5 0742 28f3 c040 e1fc 5a41 4c1f 9940
00000010: ee74 0441 ee57 5d40 031d 2b40 4839 0f41
00000020: 1784 b43f 7dfe c640 47b9 3541 9e0e 453e
00000030: 6fd4 4341 a72a e240 dda5 3e40 bad3 9240
33.942646 6.029682 13.686738 4.7850704 8.278547 3.4584918 2.6736457 8.951485
1.4102811 6.2185655 11.357734 0.19243857 12.239364 7.0677066 2.9788735 4.5883455

encoders.0.maxpool_conv.1.double_conv.0.single_conv.0.weight f4 [32, 16, 5]
00000000: 6a58 b1be 0d0c 5dbe 6e9f afbe e1c3 99be
00000010: 4a9c 9dbe e580 6f3e 1d46 03be de88 ddbe
00000020: 3741 c6be ad8a 9fbe 428f 75be 8756 8ebe
00000030: 881f 653e 0b10 153e 5e6f 233d 5123 35be
00000040: 42c6 e6bc 24a8 86be 7134 42be 55a8 bbbd
00000050: 8a05 e4bd 53fa 13be ab4c 3cbd fbb6 903d
00000060: 167b 013e f0e2 a93e c274 e5be 7b6e 7abd
00000070: b8dd 70be b891 9dbe 30f2 bdbd f9e1 a53d
00000080: 9a4d 1abe 03f8 823e 9a6b 993e 9d65 8fbe
00000090: a9d1 b0be 8d09 11be a00e 453e bf5e 3a3e
000000a0: 0093 51be e6dc c93d 1727 3e3e 1462 9cbd
000000b0: f39b 93be 38fd 89be 9692 13bf a405 903d
000000c0: 19aa b4be e3b9 98be be1d 983e 483a 013f
000000d0: 93fa a13e c175 263e b721 23be 2e9b 8bbe
000000e0: c8af 9abe 99c1 94be c7bf 803d c52f 223e
000000f0: 906a 12be af85 28be 7f5f 6f3c e3f8 39be
00000100: 59da 8e3b 15e6 88be d50c e7be 2f5d ecbe
00000110: de33 8abe 7207 e5be 7c8c 69be 366f 37be
00000120: 6831 cebc 1353 fbbd c7f4 c5bd f5ac 3ebe
00000130: 08d4 c3bd be06 b73e b1f4 413e 7416 5d3e
00000140: faee 59be 6e7f e3bd f14f 0dbe caf1 1a3e
00000150: 8157 dc3d c183 a53e e758 093d 5653 713e
00000160: 3786 73be ccf5 90be 07cc 92bd 1147 033e
00000170: 87fa fe3d 72ae ffbc 4991 dd3e 53c8 48be
00000180: 350a 993e 73d6 03bf aae9 d8be 5ea5 b03d
00000190: 5dee 5c3d 6187 953e 4ec0 f43d bb7f d83d
000001a0: 373b 07bf 0339 bb3d c659 063e b1c0 203e
000001b0: 7a44 bebe b061 d4bd e5dd 0a3e 14db bdbe
000001c0: 9a2b 8fbe a103 e33d 0d08 47bf 0c40 203e
000001d0: 829f 32be cde0 0c3f 220c 6dbe 4348 19be
000001e0: bc9f 313e 469f 9b3e cfd1 f4be 7769 f13e
000001f0: 9bba 97bd ca72 8fbe 1cca c93e cd19 5fbd
00000200: f23a 883e 25a3 6fbd 6092 783d ce7c 79be
00000210: c849 01be ce00 72be b433 38bf d2bb 5dbd
00000220: f6e8 b6bd f136 b83e 5a8b fe3e 4871 453e
00000230: 58df fdbd 630f 6d3e 35fa c7bd beea f8be
00000240: 6d0c d03d 01d9 a8ba 3420 833e c120 3e3d
00000250: f31d 0a3e 74ff c7bd dbe9 acbc 6d4e 18bd
00000260: efb1 aa3d ed2f 7cbe f15a f73d b4cc ffbe
00000270: e3fc 0b3e 18d0 0abf 2c50 a43e b8e0 f0be
00000280: 84f1 84be f89a fabc f3a1 aabd 10f1 1abf
00000290: d846 e2be 574e d93e 60cc acbe 9bf8 f1be
000002a0: 62d3 41be fb1b 21bf 2e41 acbc 4fee 26be
000002b0: 8d38 9ebe ae8d dabe 6c90 a4be 4c4c aebb
000002c0: 4573 593d 95c3 b9be 7a27 0abf 5fb5 9d3e
000002d0: 8ac8 663e 0088 a0bd 09df 98be 4b10 853d
000002e0: 28ee 253f d790 1abd 03ef d13d f79b b83d
000002f0: a475 07be 1358 5dbe 55da 68be 5946 0a3e
00000300: e8be 66be 7fca 2ebc faa0 5a3f a90e 9d3e
00000310: b235 8cbd 9a3a 50be 1b5d 8a3d 6c80 793d
00000320: b201 30bf 85be c53e 1dd1 b5be 2a97 87be
00000330: 380d 57bd b006 e03d a234 533e a226 13bf
00000340: 3209 4dbf afcf 15be c81e cd3e bba6 8dbe
00000350: 1574 b5be 4c65 0abe 9a2e 4c3e 548f 01bf
00000360: e92e 53bd 83c0 f2be 3aae ed3e f01c ffbc
00000370: fa3c 37be f521 26be c9c1 95bd 11c8 0abf
00000380: af1d e8be 396d bcbd de32 d93d 52e4 f2be
00000390: bad6 f4be d3fb 78be 6992 92be 3ba4 11bf
000003a0: 7454 90bd fa73 62be d27c 34be 3a42 6a3e
000003b0: 4385 69bc b83c 69bf 1901 d1be f178 6e3e
000003c0: 7aed e13d 7f09 5b3e 9a74 b63d f996 413c
000003d0: d5f3 603e df97 cabe 2b32 acbd 3a50 dd3b
000003e0: 699a 153f 6f83 87bd fb6a 8b3e 7e1a 86be
000003f0: d5f1 173e 674b c23d afdf 9c3e a20e 823e
-0.34637767 -0.21586628 -0.34301323 -0.30032256 -0.30783302 0.23389013 -0.12819715 -0.43268484
-0.3872163 -0.3116049 -0.2398043 -0.2780039 0.2237531 0.14556901 0.03990113 -0.17689253
-0.028170709 -0.26300156 -0.18965317 -0.09162966 -0.11133869 -0.1445096 -0.045971554 0.07066151
0.1264461 0.33180952 -0.44815642 -0.06114052 -0.23522079 -0.30775237 -0.09274709 0.080997415
-0.15068665 0.25579843 0.29964906 -0.28007212 -0.34534958 -0.141638 0.1924386 0.18200205
-0.20466232 0.09856586 0.18569599 -0.076358944 -0.28829917 -0.26951003 -0.5764555 0.07032326
-0.35286024 -0.2982932 0.2971019 0.50479555 0.31636485 0.16255857 -0.1593083 -0.2726683
-0.30212235 -0.29053953 0.062865786 0.15838535 -0.14298463 -0.16457246 0.01461017 -0.18161349
0.004359525 -0.2673804 -0.45126978 -0.46164843 -0.26992697 -0.44732243 -0.22807497 -0.17913517
-0.025170043 -0.122717045 -0.09665828 -0.18620665 -0.09561926 0.3574733 0.18940999 0.21590596
-0.21282569 -0.1110829 -0.13800026 0.15131298 0.107588775 0.32327083 0.03353205 0.23566946
-0.23781668 -0.28312528 -0.071678214 0.12820078 0.12450128 -0.031211112 0.43274906 -0.19607668
0.298906 -0.514991 -0.42365772 0.08625291 0.05393826 0.29204848 0.11950742 0.10571238
-0.5282473 0.091417335 0.13120183 0.15698506 -0.37161618 -0.10370195 0.13561209 -0.37081206
-0.27962953 0.110846765 -0.7774666 0.15649432 -0.1744366 0.5503052 -0.2314916 -0.14968972
0.1734609 0.30394953 -0.4781632 0.47150776 -0.07408639 -0.28017265 0.3941201 -0.054467965
0.26607472 -0.058505196 0.06068647 -0.24364015 -0.12625802 -0.2363312 -0.7195389 -0.054134198
-0.089311525 0.35979417 0.49715692 0.19281495 -0.12396115 0.23150401 -0.0976452 -0.48616594
0.1015862 -0.0012882055 0.25610507 0.046417955 0.13487987 -0.09765521 -0.021107605 -0.037184168
0.083347194 -0.24627657 0.120778926 -0.49960864 0.13670687 -0.54223776 0.32092416 -0.47046447
-0.25965512 -0.030591473 -0.083316706 -0.6052408 -0.44194674 0.4244258 -0.33749676 -0.47259983
-0.18928292 -0.6293332 -0.021027174 -0.16301845 -0.3090252 -0.42686218 -0.32141435 -0.005319154
0.053088445 -0.3628203 -0.53966486 0.30802438 0.22537437 -0.0783844 -0.29857662 0.06497248
0.6481652 -0.037735786 0.10250666 0.09014123 -0.1322847 -0.21615629 -0.22739537 0.13503398
-0.22533762 -0.010668396 0.8540188 0.30675247 -0.06846179 -0.20334855 0.0675604 0.06091349
-0.68752587 0.38621917 -0.35511103 -0.26482517 -0.05250284 0.109387755 0.20625547 -0.57480824
-0.80092156 -0.14630006 0.40062547 -0.27666268 -0.35440126 -0.13515204 0.19939652 -0.50609326
-0.05155841 -0.474125 0.46421987 -0.031141728 -0.17894354 -0.16223891 -0.07312352 -0.5421153
-0.45335147 -0.0920052 0.10605405 -0.4743982 -0.47820073 -0.24314813 -0.28627327 -0.5689122
-0.07047358 -0.22114554 -0.1762574 0.22876826 -0.0142529635 -0.91108274 -0.4082115 0.23288323
0.11031623 0.21390341 0.08908959 0.01181578 0.21968015 -0.39568993 -0.08408006 0.0067539485
0.58438736 -0.06616866 0.27230057 -0.26192087 0.14838345 0.09487038 0.30639407 0.2540179

encoders.0.maxpool_conv.1.double_conv.0.single_conv.0.bias f4 [32]
00000000: 0584 05bf c52b 563f 4da7 d4be 89f3 21be
00000010: c3d5 a3be c35e 063d 8f47 933d fe90 06bd
00000020: 6c53 17bf 9fbe 533e 7c42 69bc ec9c 563e
00000030: a935 913d be3a bd3d 3839 983e 2ffd 9c3e
00000040: 2c08 87be 6d39 02bf 67fe e9bd 2d29 a8bd
00000050: f6cb a63e 37ab 50be 7288 c3be 27f2 91be
00000060: c9ef 293e f0eb 9c3e 21c1 78be a3aa 113e
00000070: 8619 d1bc 91a0 7e3e e44e 133f b079 7ebe
-0.5215457 0.83660537 -0.4153389 -0.15815558 -0.31999025 0.032805216 0.07191383 -0.03285312
-0.59111667 0.20678185 -0.0142370425 0.20958298 0.07090313 0.0923972 0.29731154 0.30661914
-0.26373422 -0.50868875 -0.114254765 -0.08210979 0.32577485 -0.20377813 -0.38190037 -0.2850506
0.16595377 0.30648756 -0.24292423 0.14225249 -0.025524866 0.24865939 0.5754225 -0.24851108

encoders.0.maxpool_conv.1.double_conv.0.single_conv.2.weight f4 [32]
00000000: 8438 4c3f 26c9 783f f179 353f 55e6 743f
00000010: 998a 203f d515 3e3f 01f2 c23f ac64 833f
00000020: d8ff 8a3f c239 8b3f f6e3 3a3f 7d75 9a3f
00000030: 0d9c 913f a888 383f d961 923f a21b 9c3f
00000040: 23c8 883f 2db0 c13f 5c4c 933f 4750 a13f
00000050: 4b4e fd3e 8789 313f 1896 353f 6491 9e3f
00000060: 7c11 ab3f 1603 7d3f fc36 9a3f 9afd 373f
00000070: d006 c43e e355 673f 8d52 cf3f a33c 713f
0.79773736 0.9718193 0.7088919 0.9566396 0.62711483 0.74252063 1.5230104 1.0265098
1.0859327 1.0877001 0.7300409 1.2067105 1.1375748 0.7208352 1.1436111 1.2195933
1.0686077 1.513189 1.1507678 1.2602624 0.49473795 0.69350475 0.7093215 1.238812
1.3364711 0.98832834 1.204803 0.7187134 0.38286448 0.9036543 1.6197067 0.9423315

encoders.0.maxpool_conv.1.double_conv.0.single_conv.2.bias f4 [32]
00000000: 8b04 a5be 859c f13e d2d1 843d b401 ccbd
00000010: a8ed efbd 28f8 da3e f5f6 093f 1f0c bd3e
00000020: 72aa 793e c547 8dbd b763 b93e 22f5 f33e
00000030: 76a7 e33e 9fea 9d3e 01e0 e13e 0a08 c53e
00000040: d229 bbbe 194f cfbe 1eb3 05be e453 1e3f
00000050: 2b1c 173d 58a2 953d 52be 373e 8b00 e3be
00000060: 6920 e63e 091a 1b3e eab5 873e e7f1 583d
00000070: 8f29 be3e 7f12 c13e 6dcd f13e 784b d3be
-0.3223003 0.47189727 0.064853325 -0.09961262 -0.11715251 0.42767453 0.5389245 0.3692331
0.24381426 -0.068984546 0.3620889 0.4764796 0.444637 0.30843064 0.44116214 0.38482696
-0.36555344 -0.40490034 -0.13056609 0.61846757 0.036892097 0.07306355 0.17943695 -0.44336352
0.44946602 0.1514665 0.26505977 0.05296507 0.37141082 0.37709424 0.4722704 -0.41268516

encoders.0.maxpool_conv.1.double_conv.0.single_conv.2.running_mean f4 [32]
00000000: 3d6f 533d f256 4040 c48e 163e a0bd 2640
00000010: 1fb3 243f b63f f73f 0497 4140 2d09 1840
00000020: 9a6e e43e d3c1 9840 be47 183f e342 893f
00000030: 1986 b93f 56b4 6d3f 324b 3140 84bc 0140
00000040: 2cd0 b53f 85d4 063f 53e3 2940 9601 a03f
00000050: e2ab 5140 7225 de3f 4b00 9540 4360 4040
00000060: 5908 0440 1741 7140 f97b 173e 7a7c 1c40
00000070: 54ae f53f cdad 0540 54e0 8e40 ccf2 d13f
0.051619757 3.0053067 0.14702898 2.6053238 0.6433582 1.9316318 3.0248423 2.37556
0.44615632 4.77366 0.5948447 1.0723537 1.4494048 0.92853296 2.7702146 2.027131
1.4204154 0.5266803 2.6544998 1.2500484 3.276116 1.7355177 4.656286 3.0058753
2.0630095 3.7695978 0.14793386 2.4450974 1.9193826 2.088733 4.464884 1.6402221

encoders.0.maxpool_conv.1.double_conv.0.single_conv.2.running_var f4 [32]
00000000: 9244 313e deba 2541 54ed fe3e 59f0 8841
00000010: eb05 4740 2e27 1b41 f27c 4a41 841b 7141
00000020: be8e 2440 f100 b641 654a 0740 fc59 9d40
00000030: eed9 df40 f898 7b40 54cf 2741 466c 2041
00000040: 0b9b a641 ea0d dd40 780a 9b41 4ce2 b040
00000050: 94b7 be41 b373 e840 3cf3 7741 7756 2b42
00000060: 8b48 0e41 b117 cb41 8459 ce3e d851 9c41
00000070: 9586 fd40 38bb fa40 9358 8a41 1286 c441
0.17311314 10.358122 0.49790442 17.117357 3.1097362 9.697065 12.655504 15.069218
2.5712123 22.75046 2.1139157 4.9172344 6.9953527 3.9312115 10.488117 10.026434
20.825705 6.9079485 19.380112 5.527624 23.839638 7.2641234 15.496883 42.83444
8.892711 25.386568 0.4030267 19.539963 7.9226785 7.835354 17.29325 24.565464

encoders.0.maxpool_conv.1.double_conv.1.single_conv.0.weight f4 [32, 32, 5]
00000000: 2c5a 7dbd 1c2d 96be 081d 3cbc dcfe 833d
00000010: 8c1e bc3e 5138 823e 0772 4bbe 0add d83e
00000020: 8261 90bc 1dff 5abe 9c49 1bbe 2cd3 8a3d
00000030: 6c95 453e 66ec e33e 578f 1d3e ee8b 663e
00000040: ed00 363e ddc5 a0be fe86 d33e 6389 923e
00000050: 5a21 aabe 0e90 283e bb92 74bd 30e9 3c3d
00000060: f38b 4f3e 967c 6c3d 4393 503e 3960 13bf
00000070: ad60 c1be b453 bd3e d6e0 913c 1c05 093e
00000080: 753f 0abf 3ac0 f4be 387b 2e3e 3552 cb3d
00000090: c377 b63d 7707 a7bd 2edc 8c3e cd99 be3c
000000a0: 37bc 86bd fee6 23bf 4c15 5abe 0bf5 b8be
000000b0: 0ae1 fc3d ece5 2c3e e36a bdbd 9f0d be3d
000000c0: a071 b53d f4a0 423e 1f8f cb3d b545 a13e
000000d0: d767 863e 9a1f 65be eaea 88bd 7177 0cbf
000000e0: f151 febe 89dc c73d cec1 dabe a0f6 08bf
000000f0: e277 a33d 28e2 dcbe 0024 95be 8615 39bf
00000100: e45a 5ebe 448f 983d 2a26 adbf a4a2 5abe
00000110: 9128 953d b4fc 24bf 2156 653e e1ed ffbe
00000120: 98b9 70bd 775d b73e 3366 0cbf daf8 1fbf
00000130: fd95 98bf 2a71 603d 70f9 06bf 79bd b1be
00000140: cb55 b73d 0e2e 753e 9001 f43e cbb0 26be
00000150: ce90 cebd 493f 8f3b 1b7f 1fbe 5fc2 a0be
00000160: ae1f c1be 8655 d8be 2f0c d93e 810f 213f
00000170: e166 e7be 8030 27be 6e4c 903e d208 35bf
00000180: 35fe e53d 7c89 f13e 0a12 ac3e 232c 55bf
00000190: 1646 18bd 90e8 1c3d d888 593e e3ed 3dbe
000001a0: 363a 6cbe b3a1 d93e b920 f0bd a6b0 543d
000001b0: 2637 b43e 53be 03bf 9918 993d a1b4 9b3b
000001c0: c789 233f 6055 61bd 46ac 2cbe a6c7 d63e
000001d0: 1072 fdbc 41b8 933e f592 943e 1f45 70be
000001e0: e9c0 093f 406d 0e3f 6a0b 9dbe 6dab 99be
000001f0: 4530 26be d6b3 2d3e ebe0 233e f6b9 14be
00000200: 9fc3 483f a545 983d 4bf0 55be 2249 1cbe
00000210: 6588 d2bb bbc7 1c3d 9d1a 17bf 67d4 073d
00000220: 29d3 e13e dd1a 96bc d148 25be 7c95 073f
00000230: fa18 55be 81cb 4a3b 6804 7ebe d3f9 8abe
00000240: 28c0 c8be dbd3 b33d 5807 22bf b074 c0bd
00000250: d807 9bbe 0d3f 7dbe 1706 a8bf dc21 02bf
00000260: 3215 a73d 332f 25bf f8b4 1bbe 28c5 933e
00000270: 58ec bcbc 290f ad3e 5910 e93d 3ebd b2be
00000280: 4935 0bbc a0be acbd eef6 30bd e150 013f
00000290: d9af 283f 8878 0ebe 78d0 d5be 3a36 26be
000002a0: 219a 103e d530 18be 4698 62be b7fd bd3b
000002b0: b893 37be 5824 d63d 31b7 2cbe 7e61 63be
000002c0: ef88 91be 2af8 8a3e 6f7e 733e 361b 6ebe
000002d0: cbc6 053e a1a7 253d 9283 4c3e 2bb1 533e
000002e0: ef61 973e 9cbc 5b3d 9fd2 00bf e3c9 8bbe
000002f0: 1f04 ee3c 716a 8b3e 154d e3bd 3174 e5be
00000300: 9d10 b7be 3413 b8be c83f 673d b46e 0a3d
00000310: 3d06 b7bd 2484 df3d 81b0 d63c 1fc0 973e
00000320: 8e9d f9be c084 ccbe 3468 aebd 0b49 f8be
00000330: c1f7 513e abd1 be3e e585 a53e 8112 0d3d
00000340: 2dcf 053d 811b 54bd f9a7 cd3d 33a2 85bd
00000350: b97a 4dbe 363d a8bd 9537 39be 602f 7f3e
00000360: 7753 263e f3cf 99be 3356 a3be 0687 37bf
00000370: a3f5 26be df8f 7abe 3729 0ebf 1000 5ebe
00000380: b871 46bf ed06 a43e e251 ab3d ae74 9dbd
00000390: 3a5e 6abe 464a 9dbe ddfb 17bf 3096 0fbe
000003a0: 9932 45bd cb0e 59bc 2772 34be 07c9 6b3e
000003b0: e4f8 b0be d41b e8bd c886 ac3e c2a5 1dbd
000003c0: 2bbf c53d 0a5d d33e 3c95 4a3f 2456 f73e
000003d0: d7dd df3e c822 263f 36ab 153f 1864 933e
000003e0: 8dc8 8b3e 508d 293f e73b 313f 9ca8 393e
000003f0: c6c2 b03d b85c 35bd 1061 9bbd 08bf 32bf
-0.061853573 -0.2933129 -0.011481531 0.06445095 0.36742055 0.2543359 -0.19867717 0.4235614
-0.01762462 -0.2138638 -0.15164798 0.06778559 0.19295281 0.44516295 0.15386711 0.22514316
0.1777379 -0.31400958 0.41313928 0.28620443 -0.3322857 0.16461203 -0.059710246 0.046120822
0.2026823 0.057736002 0.20368676 -0.575687 -0.3776907 0.36977923 0.017807405 0.13380855
-0.5400308 -0.47802907 0.17039192 0.09927789 0.089095615 -0.08155721 0.27511734 0.023266697
-0.06578868 -0.6402434 -0.21297187 -0.36124453 0.1234761 0.16884583 -0.09248903 0.09279942
0.08859563 0.19006711 0.099394076 0.31498495 0.262511 -0.22375336 -0.06685431 -0.54869753
-0.4967189 0.097588606 -0.42725986 -0.5350132 0.0798185 -0.43141294 -0.29129028 -0.7229847
-0.2171436 0.07449201 -1.3527272 -0.21351105 0.07283128 -0.64448094 0.22396137 -0.49986175
-0.058770746 0.35813496 -0.54843444 -0.6248909 -1.1920773 0.05479542 -0.5272436 -0.3471487
0.089519106 0.2394335 0.47657442 -0.16278379 -0.10086213 0.004371558 -0.1557583 -0.31398293
-0.37719482 -0.4225275 0.42392108 0.6291428 -0.45195678 -0.16327095 0.2818331 -0.70716584
0.11230127 0.47175205 0.33607513 -0.8327047 -0.037176214 0.038307726 0.21243608 -0.18547778
-0.2306908 0.4250618 -0.11724991 0.051926278 0.35198325 -0.51462287 0.07475395 0.0047517573
0.63882107 -0.05501306 -0.16862592 0.41949195 -0.030938178 0.28851512 0.2901837 -0.23463868
0.5380998 0.5563545 -0.3067277 -0.300136 -0.16229351 0.16963133 0.16003768 -0.14524063
0.78423494 0.07435159 -0.20892446 -0.15262273 -0.006424951 0.038276415 -0.59024984 0.033161547
0.44106415 -0.018323356 -0.16141059 0.5296247 -0.20810309 0.0030944052 -0.24806368 -0.27143726
-0.39209104 0.087806426 -0.63292456 -0.093972564 -0.30279422 -0.24731083 -1.3126858 -0.50832915
0.081583396 -0.64525145 -0.15205753 0.28861356 -0.023061916 0.3380063 0.11380071 -0.34910005
-0.008496591 -0.08434796 -0.04320424 0.50514036 0.6589332 -0.13913167 -0.41760612 -0.16231623
0.14121296 -0.14862378 -0.221284 0.0057980674 -0.17927444 0.10456151 -0.16866757 -0.22205159
-0.28424785 0.2714246 0.237787 -0.23252568 0.13064115 0.040443067 0.19972065 0.20673053
0.29566905 0.05364667 -0.5032138 -0.27302465 0.0290547 0.27229646 -0.110986866 -0.4481521
-0.35754862 -0.3595215 0.05645731 0.03379698 -0.08936737 0.10913876 0.02620721 0.29638764
-0.48753017 -0.3994503 -0.08515969 -0.48493227 0.20504667 0.3726934 0.32328716 0.034441475
0.03266828 -0.051784042 0.10041804 -0.06525078 -0.20066346 -0.082148 -0.18087609 0.24920416
0.16242777 -0.30041465 -0.31901702 -0.71690404 -0.1630464 -0.24468945 -0.5553164 -0.21679711
-0.7751727 0.32036534 0.08365227 -0.076882705 -0.22887507 -0.3072073 -0.5936869 -0.14022136
-0.048143957 -0.013248156 -0.1762167 0.23025905 -0.34564888 -0.11333433 0.3369658 -0.038488157
0.09655603 0.4128192 0.79133964 0.48307908 0.43723938 0.6489682 0.5846437 0.28787303
0.27301446 0.6623125 0.6923203 0.18130726 0.086309 -0.044277877 -0.075868726 -0.6982274

encoders.0.maxpool_conv.1.double_conv.1.single_conv.0.bias f4 [32]
00000000: 381d a1bc 6d98 cdbe cf1d 84be f2ad e5be
00000010: 7e9d c8be 79d3 09bf c980 943e ca26 68be
00000020: 3eae 0eba 8110 753d bd36 a93e eabb ed3d
00000030: ac2c dcbe 1835 a63e f29f 02be 5d7d 673e
00000040: 5471 11bf 5c12 c8bd 9a90 2d3f c2c5 67bc
00000050: a151 00be 6021 adbe 83d3 eabe 928b 6f3e
00000060: 2a6d ac3e 8c54 b2be f7e2 143f 7941 933e
00000070: 8e2b d0bd 006c 86be 898b 9fbe d924 f3bd
-0.019667253 -0.40155354 -0.25803992 -0.44859272 -0.39182657 -0.53838307 0.29004505 -0.22671047
-0.0005442834 0.059830192 0.33049574 0.116081074 -0.43002832 0.32462382 -0.12756327 0.22606416
-0.5681355 -0.09769127 0.6779877 -0.01414627 -0.12531139 -0.33814526 -0.45864496 0.23393086
0.33677036 -0.3483013 0.5815882 0.2876089 -0.101645574 -0.26254272 -0.31161144 -0.118722625

encoders.0.maxpool_conv.1.double_conv.1.single_conv.2.weight f4 [32]
00000000: 119d 6c3f 539d b93f 5989 423f cabb 653f
00000010: ba44 c03f 7331 8b3f d04c a63f e521 593f
00000020: 4d7c 8d3f 200c 313f 5e22 323f 8d42 053f
00000030: f4fb 8a3f c625 973f c876 7a3f 9aa7 643f
00000040: e7a3 963f 3542 893f 2628 123f d6f0 b93f
00000050: ec8e 873f e33e a43f e13e ab3f 5562 653f
00000060: 9db8 933f 6de3 983f 79e7 453f 359c 8e3f
00000070: fe74 523f f36e 7f3f dc6f 803f ed7f b33f
0.92427164 1.4501137 0.75990826 0.8973967 1.5020974 1.0874466 1.2992191 0.84817344
1.1053559 0.69159126 0.6958369 0.52054673 1.085814 1.1808403 0.97837496 0.8931824
1.1768769 1.072333 0.5709251 1.4526622 1.0590491 1.2831692 1.3378564 0.8960317
1.1540715 1.1944405 0.77306324 1.1141421 0.82209766 0.9977867 1.0034137 1.4023415

encoders.0.maxpool_conv.1.double_conv.1.single_conv.2.bias f4 [32]
00000000: f4d5 3a3e 849d 8d3c 8c86 953e 280d 2bbe
00000010: bcb7 89be 0af6 fabc 4917 4e3e e0a6 893c
00000020: 741c a63d 219b f73c 72a9 133e bc06 af3e
00000030: a93f 273d 3287 c13e 5001 7dbd 3eb1 a23d
00000040: cd3c 82be ced6 943e 522e b63e 6252 a43e
00000050: 3d4b a13d 00e7 93be e283 823b af0e 703e
00000060: 5f17 c13e 96ef af3e e17f 353e 32a9 ab3e
00000070: e69f 17be a156 7e3e 0e26 c03e 4862 ef3e
0.18245679 0.017287023 0.29204214 -0.16704237 -0.2689799 -0.030634899 0.2012607 0.016803205
0.08110896 0.030225338 0.14420107 0.34184825 0.040832195 0.37798458 -0.06176883 0.079439625
-0.25437012 0.29070133 0.35582215 0.32094103 0.07875679 -0.28887177 0.003983007 0.23443101
0.37713143 0.34362477 0.17724563 0.33527523 -0.1480709 0.24837734 0.37529033 0.4675467

encoders.0.maxpool_conv.1.double_conv.1.single_conv.2.running_mean f4 [32]
00000000: 901a 5b3f 38c6 1940 25cf e13f b37e a33f
00000010: 3502 b33f b706 0240 a900 4940 7c45 9440
00000020: 5d27 c03f 72c5 c43f 26c4 2140 3aaa 7740
00000030: 85d7 c43f cd95 1140 628c dd3f ea3a 8e40
00000040: f855 fe3f e4c5 1240 d4b0 f73f 93b7 8a40
00000050: 82b6 b63f 6a20 a53f ce96 ff3f fec2 9b40
00000060: 2ffe bd40 b539 f43f 3256 8240 a373 a840
00000070: 81fb 7540 f062 c33f 3521 2d40 ac31 7f40
0.85587406 2.4027233 1.764134 1.277304 1.3985049 2.0316598 3.1406653 4.633482
1.5012013 1.5372756 2.527597 3.8697648 1.5378271 2.274768 1.7308466 4.4446917
1.9869986 2.2933283 1.9350839 4.334909 1.4274447 1.2900517 1.9967897 4.8675528
5.9372783 1.9080111 4.073022 5.264116 3.8434756 1.5264568 2.7051518 3.9874067

encoders.0.maxpool_conv.1.double_conv.1.single_conv.2.running_var f4 [32]
00000000: d3d2 ce40 ba27 c942 b309 3d41 e5d4 0442
00000010: 4a96 6d41 3346 9942 8a88 9341 b05a fa41
00000020: 9374 6741 1363 0441 c3eb 8441 9a9c 9441
00000030: 3876 3642 dfe2 8241 4612 1342 56ba c441
00000040: 75c2 7e42 6c3f 3741 cbb8 8341 03fa bc41
00000050: b2e9 6f41 5075 3141 e4cb 9142 1339 f341
00000060: 1bc0 0642 74c5 3841 229e a441 f40b 0f42
00000070: 3bb3 ca41 277e 3442 eb3f 5b41 34d8 d441
6.4632354 100.57759 11.814868 33.207905 14.849192 76.63711 18.44167 31.294281
14.4659605 8.274188 16.615118 18.576466 45.615448 16.360777 36.767845 24.590984
63.6899 11.452984 16.46523 23.622076 14.9945545 11.091141 72.898224 30.402868
33.687603 11.548206 20.577213 35.761673 25.337515 45.123196 13.703105 26.605568

encoders.1.maxpool_conv.1.double_conv.0.single_conv.0.weight f4 [64, 32, 5]
00000000: 72ba b3be c95b 36be 3e23 92be 28b3 bdbe
00000010: 374f 80be f147 76be 345d 19be 8713 28bd
00000020: 2a72 3ebe 6171 fdbd b9be 01be cd61 7dbe
00000030: 1225 89be 9669 ecbe e874 b5be 853e 8abe
00000040: 6693 16be a95d 32be aca9 fabc 09c4 22be
00000050: d23d 5fbe 1a0a c9bd 540f 4d3e 7d17 7c3d
00000060: e59a 40be daed 24be a61d 4abe 3a2a 75be
00000070: 0c49 45be d448 82be b0d0 dd3d de1d d4be
00000080: 88b1 d6be 0f78 8e3e 8626 193c 9496 0dbe
00000090: 9a7d 85be 1121 a1be c00d 38be cb6b b8be
000000a0: 90e1 4ebe f298 92be 6bbe b6be c851 09be
000000b0: 34d8 7fbd c761 1a3d 702d e0be b2d0 9fbe
000000c0: 401e 6fbe a867 a8be 48f5 98be 3d0d b9be
000000d0: f327 693d 32d4 903c f7d5 83be 7b6f f3be
000000e0: 9506 afbd effd 8a3d 8a76 c5bd 7825 2c3e
000000f0: dc09 cbbd 0603 fbbd 5ceb 0fbe 2972 bbbd
00000100: 56c5 4bbe 029e 2cbe 495e 09bf 4d0c aabe
00000110: 1921 b8bd a2e8 903d 5bf4 47be 11cf 3ebe
00000120: 0ed7 543e 1801 203e dfaa 0bbe 8914 c9be
00000130: 1478 84bc e7e4 87be ef62 fdbd afaa 0dbe
00000140: 0f28 54be fb3f 21be c382 4ebe 5640 86bd
00000150: b6d2 88be 30e6 93be 45f0 8cbe 3580 c7be
00000160: d458 fdbd 246b 893d 43b9 563e 5dc9 a23d
00000170: 5ec6 3f3e c6d2 72bd 7b65 953d 4db2 dfbe
00000180: 6744 b0be 0ca3 e1be debd b3bc 965f 57be
00000190: 3a9d 00be 4b17 8abe 842b 90be 0a67 a7be
000001a0: 1e4a 84be a3d3 2fbe f54f adbe 9d2e 6fbe
000001b0: a552 eabd e436 4abd 3d71 25be 554f 4cbe
000001c0: fd78 ccbd cc1d 76be 7467 7fbe 3673 6bbe
000001d0: dcaf 79be 6cb2 8abe df65 84bd 88f7 10bf
000001e0: 194e 6cbe d3c1 29bf 6923 f5be a688 5bbe
000001f0: 7c0b bebe 2b38 96be ca61 40be 855d aebd
00000200: c921 0dbe b00c 38be c569 16bf 2c94 1abe
00000210: fac6 acbe 9f81 f5be 4423 83be 05c3 ca3d
00000220: 9daa 31be d367 453d 4cc0 92be e962 4ebd
00000230: 25c3 943c 1d16 78be 1fcf 7dbe 9f87 c8bd
00000240: 7dd6 96be 4489 40be b583 83be 358f 15be
00000250: 63a1 16be 2486 82be 3d57 bfbe 8fbb 1bbe
00000260: 0de6 07be 4b6c 10bd b688 b6be fb07 aabe
00000270: 5ce2 03be 1bcb d3bd 9914 37bd b12e 81bd
00000280: 847d 033e 3c73 b43e b6b2 0cbc 31e5 373e
00000290: 1561 9bbe ba2f 483e 18e2 10be 54c2 d53d
000002a0: b887 4fbe 5d1a d93e 31c8 3e3d 534b e73e
000002b0: 6afb a9bc 9723 423d 39d5 843e e2c1 acbe
000002c0: 18dd 0bbf d8e8 6dbe 0140 0abe 644e 983e
000002d0: 14d7 093f fc15 233e 11cd a4be c372 efbe
000002e0: 0c3e 343f 02d4 bd3d a599 37be 006a 80bd
000002f0: c316 91be 86e0 183f 9afd 44be a815 433d
00000300: b3fd 863c be2a 023e 0734 32bf d2e9 0a3f
00000310: a9f3 463e 5bbb 953e f4cc 83bd 0f1e 393e
00000320: 0af8 233e 4d25 c0be 1dc0 d53d 9c6d 5d3c
00000330: ffc2 233f 9c8f 443f 73f0 d6bc b1bc 323e
00000340: 5d64 093e b8a4 2ebe 6b13 c63e 3342 75bd
00000350: 3882 9ebc 4cc2 4b3e 52dc 9dbe 3ea8 f23c
00000360: 461d ab3e f201 cfbd 9a60 1f3d ba04 813e
00000370: 7297 0d3d 1a88 35be d2d7 9bbe 9351 b6be
00000380: f9e5 d23e dcaf 3c3f b318 f43d 2f55 bcbe
00000390: b28f 4d3e fb97 d93e 780b d93e 4f2b f93c
000003a0: 077a 993e 2cb4 d73d 94f6 5e3e ebb8 28be
000003b0: 00ca b53e 1bda 953e dec5 34bb c859 a4be
000003c0: 9ebc c63e 95db 12be 30ab 213e 12c4 0fbe
000003d0: 760f 213f 4c21 9b3e ffd4 ea3d 632a 88be
000003e0: 251e 6abe 0118 58be 1baa 46be 544d 58bc
000003f0: c145 833e 3ce0 01be e960 103f 4403 263f
-0.35103184 -0.17808451 -0.28542513 -0.37050748 -0.25060436 -0.24050881 -0.1497696 -0.041034248
-0.18598238 -0.12375141 -0.12670411 -0.2474434 -0.26786095 -0.46174306 -0.35440755 -0.27000824
-0.14704666 -0.17418541 -0.030598484 -0.15895094 -0.21800926 -0.0981638 0.20025378 0.061545838
-0.18809088 -0.16106358 -0.19737872 -0.2394189 -0.19266146 -0.25446188 0.108308196 -0.41429037
-0.4193232 0.27825972 0.009347564 -0.13826972 -0.2607239 -0.3147054 -0.17973995 -0.3601974
-0.20203233 -0.28632313 -0.35692152 -0.13410103 -0.062462047 0.037690904 -0.43784666 -0.3121391
-0.23351383 -0.32891583 -0.29874635 -0.36142913 0.056922864 0.017679308 -0.2574918 -0.4754599
-0.08546177 0.06786715 -0.0964175 0.16811168 -0.0991399 -0.12256436 -0.14054626 -0.09152634
-0.19899496 -0.1685715 -0.5365949 -0.3321251 -0.08990688 0.07075621 -0.19526808 -0.18633677
0.20785162 0.15625417 -0.13639401 -0.3927348 -0.016170539 -0.26541826 -0.12372386 -0.13834642
-0.20718406 -0.15747063 -0.20167069 -0.0655524 -0.2672326 -0.28886557 -0.2752706 -0.38965002
-0.12370458 0.067098886 0.20969109 0.07948563 0.18728015 -0.05928304 0.072947465 -0.4369072
-0.34427187 -0.44069707 -0.021941122 -0.21032557 -0.12559977 -0.26970896 -0.281582 -0.326958
-0.25837797 -0.17170577 -0.33850065 -0.23357625 -0.114415444 -0.049368754 -0.16156478 -0.19952138
-0.09984014 -0.24034804 -0.24941808 -0.22993168 -0.24383491 -0.2708925 -0.06464743 -0.566277
-0.23076667 -0.6631138 -0.47878578 -0.21438846 -0.37118137 -0.29339728 -0.18787304 -0.08513931
-0.1378242 -0.1797359 -0.5875514 -0.15095586 -0.33745557 -0.47950456 -0.25612843 0.09900478
-0.1735024 0.048194718 -0.28662336 -0.050387297 0.018159458 -0.24227186 -0.24786042 -0.09791493
-0.29460517 -0.18802363 -0.25686422 -0.1460541 -0.14710002 -0.25492966 -0.37371245 -0.15208267
-0.13271351 -0.035259526 -0.35651177 -0.33209214 -0.12879318 -0.10341474 -0.044697378 -0.06307734
0.12840849 0.35244167 -0.00858753 0.17958523 -0.30347505 0.19549456 -0.14148748 0.10437456
-0.20266616 0.42402926 0.046577636 0.45174655 -0.020749766 0.047397222 0.25943926 -0.3374167
-0.5463424 -0.23233354 -0.13500978 0.29747307 0.5384381 0.15926355 -0.32187703 -0.46767244
0.70407176 0.09268953 -0.17929704 -0.06270218 -0.28337678 0.59717596 -0.19237366 0.047628075
0.016478395 0.12711617 -0.6961064 0.5426303 0.19428886 0.29244503 -0.06435576 0.18077873
0.16012588 -0.37528458 0.10437033 0.013514902 0.63969415 0.7678163 -0.026237702 0.17454793
0.13417192 -0.17055023 0.3868669 -0.059877586 -0.019349203 0.19898337 -0.30832154 0.02962124
0.3342077 -0.10107793 0.038910486 0.2519892 0.034568258 -0.177277 -0.30438095 -0.3560911
0.4119108 0.7370584 0.119187735 -0.3678374 0.20074347 0.42498764 0.42391562 0.030416159
0.29975912 0.10532412 0.2177375 -0.1647679 0.35505676 0.29267964 -0.0027583758 -0.32099748
0.38815778 -0.14341576 0.15787959 -0.14039639 0.62914217 0.3029884 0.11466407 -0.26594839
-0.22863062 -0.21102907 -0.19400828 -0.01320203 0.25639156 -0.12683195 0.56397873 0.6484873

encoders.1.maxpool_conv.1.double_conv.0.single_conv.0.bias f4 [64]
00000000: fbec 65be 44e4 15be a15d eabe b761 edbe
00000010: 4251 d6be b7d2 2cbe 75e7 efbe a4e5 a5be
00000020: e3dc 5bbc 1d01 ccbd 0b1a 9b3d 25b7 d6be
00000030: 026d 78be 5c0c b3bd b47b 2ebf 3bfe 47bf
00000040: ebb4 293d 076d 50be 490f 27be 9c45 ecbe
00000050: 15a7 82be 5943 27be 09f5 dcbd f4e3 b73e
00000060: eee5 94be 292d bcbe a3e2 9bbe ab14 adbd
00000070: 6d09 98be b928 16be fe7c 13bf fd66 e8bd
00000080: 14f5 42be 7d31 e4be 40e7 ffbd 0c25 c03e
00000090: b72c bc3d 6c34 903d 7332 f83d 370a 4ebd
000000a0: 4b88 dfbd 6f2f b3be 312d e03e f5f0 10be
000000b0: 3f1b e0bc 9b48 9fbe 3edd 7dbe a1c3 a1be
000000c0: 90a9 23bf 4d01 a2be 0297 06be d24c 9d3e
000000d0: dad4 4abf 2792 f23e ce37 0bbe def2 a3be
000000e0: 9f18 99be 2496 313e 3c59 acbd bba9 f3be
000000f0: 210e 08bf 34a6 53be ccff 49be f11a 89be
-0.22453682 -0.14637858 -0.45774558 -0.46363613 -0.4185887 -0.16877256 -0.46856275 -0.32401764
-0.013419363 -0.0996115 0.07573327 -0.41936603 -0.24260333 -0.08742592 -0.68157506 -0.781223
0.041432302 -0.2035409 -0.16314425 -0.46146858 -0.25518098 -0.16334285 -0.10788924 0.35916102
-0.29081672 -0.36753204 -0.30446348 -0.08451208 -0.2969469 -0.14663972 -0.576126 -0.113477685
-0.19038802 -0.44569007 -0.12495279 0.37528265 0.09188216 0.07041249 0.121189974 -0.05030271
-0.10914668 -0.34997126 0.43784478 -0.14154418 -0.027356742 -0.3111008 -0.24791428 -0.31594566
-0.63930607 -0.31641617 -0.13143542 0.30722672 -0.79231036 0.4737713 -0.13595507 -0.3202123
-0.29901597 0.1734243 -0.084154576 -0.47590432 -0.5314656 -0.2066887 -0.19726485 -0.26778367

encoders.1.maxpool_conv.1.double_conv.0.single_conv.2.weight f4 [64]
00000000: 1032 813f a16f 113f 66aa 9d3f 3389 bb3f
00000010: 9266 953f 7aa5 f33e 1f92 8c3f 5a5f a23f
00000020: e73f 2d3f 622e 853f 34e2 3c3f 6869 a63f
00000030: 6be6 8f3f 7de4 633f 2b2c 833f bd26 803e
00000040: 9647 9f3f 55c6 a43f 4f0d 933f 904e 963f
00000050: 3553 e13e f6a9 2c3f b83f 303f 1369 b93f
00000060: 37f1 6d3f f588 893f fb8b be3f 4fee 6c3f
00000070: 8c53 c73f a6c2 6a3f 5b86 ab3f a0bc e63e
00000080: c2e6 4a3f 561f bf3f 377a 883f 5cd9 e23e
00000090: 77a7 823f 80cd 583f 7ddf 413f 3808 563f
000000a0: 3a16 323f 2791 c33f 255e 7b3f c545 ad3f
000000b0: 3c4f 873f 9809 c23f 6862 c53f f46c a63f
000000c0: fc33 b83f 97af 773f 87e5 6f3f c637 353f
000000d0: e5d6 5f3f 7257 943f 3ff5 723f bce4 733f
000000e0: c863 8b3f 7069 093f bcd9 663f b717 843f
000000f0: 32e5 7f3f 9710 1e3f fa5d ca3f 11e0 8d3f
1.0093403 0.5681096 1.2317626 1.4651245 1.1671927 0.47587186 1.0982093 1.2685349
0.6767563 1.040478 0.7378266 1.3000917 1.1242193 0.8902052 1.0247854 0.25029555
1.2443721 1.2873026 1.1488436 1.1742725 0.44008794 0.6744684 0.6884723 1.4485191
0.9294619 1.0744921 1.4886469 0.9255113 1.5572371 0.9170326 1.3400377 0.45065784
0.7925836 1.4931438 1.0662297 0.44306457 1.0207356 0.8468857 0.7573164 0.8360629
0.69565165 1.5278672 0.9819053 1.3536917 1.0571055 1.5159178 1.5420656 1.3002
1.4390864 0.96752304 0.93709606 0.7078823 0.8743728 1.1589186 0.94905466 0.95270896
1.0889826 0.5367651 0.90175986 1.0319737 0.999591 0.61744064 1.5809929 1.1084005

encoders.1.maxpool_conv.1.double_conv.0.single_conv.2.bias f4 [64]
00000000: 6e6b 693e ec95 b33e 4501 d83e 0b16 bbbe
00000010: 1570 ccbe e2ef 01be d667 d43d 528a c6be
00000020: d40d 88be ac86 c4be 79e0 2fbe 1f04 bdbe
00000030: 3c7c a5be c05e 96be 9fcf 93bc 2347 d53d
00000040: 0288 59be 6a07 a3be e0e1 9cbe ee2a 99be
00000050: 0dd0 03bd 020f 9cbe 2ae6 98be 4f92 b4be
00000060: 2991 babe 239c 8abe 1540 b4be 0be9 51be
00000070: ef02 99be 53c1 3dbe 15fa 8ebe 203b b73e
00000080: 8ab4 a9be ca84 c5be 94a0 66be 19d9 4b3e
00000090: 2fb8 0d3f d08e e73e 4f8a 35be 39b3 f6bd
000000a0: 5669 8d3e b912 cebe 9bef 103f 24cc 92be
000000b0: f349 b6be 75f8 acbe d529 cebe 7cf1 a4be
000000c0: 82bd d4be 0087 e5be 9917 4ebe a629 d4bd
000000d0: ce46 55be 11b0 563e f62b 73be 9660 c1be
000000e0: 553e f3be 5b11 adbe 2949 193e 6866 adbe
000000f0: d8cb 2a3e cbab 0abe f47b d9be 741e 593c
0.22794887 0.3507532 0.4218847 -0.36540255 -0.39929262 -0.12689164 0.10371368 -0.38777405
-0.2657305 -0.38383996 -0.17175473 -0.36917207 -0.32321346 -0.29369164 -0.018043337 0.10413959
-0.21243289 -0.31841594 -0.3064108 -0.29915565 -0.032180835 -0.304802 -0.298631 -0.35267875
-0.36438873 -0.27072248 -0.3520514 -0.20499055 -0.2988505 -0.18530779 -0.27925172 0.35787296
-0.33145553 -0.38577873 -0.22522193 0.19907035 0.55359167 0.45226145 -0.17728542 -0.12045903
0.27619427 -0.4024866 0.5661561 -0.28671372 -0.35603294 -0.33783308 -0.4026629 -0.32215488
-0.41550833 -0.4482956 -0.2012619 -0.10359506 -0.20827791 0.20965602 -0.23747239 -0.37769002
-0.47508493 -0.33802304 0.14969315 -0.33867192 0.16679323 -0.13542096 -0.4247738 0.0132518895

encoders.1.maxpool_conv.1.double_conv.0.single_conv.2.running_mean f4 [64]
00000000: 0329 d519 a284 2741 f750 3140 8452 683f
00000010: 13e9 b23f 3c88 3140 112e 2840 e968 5b3f
00000020: cc68 7d3f 5fcc 3f40 9c2a 8341 a2f9 4040
00000030: 02e5 4940 d949 5340 e3b1 f23f 545f 0a40
00000040: 7fbd 4040 3b8f 5a40 1274 8340 a849 973f
00000050: 3958 5040 cf25 093f 1049 6440 d541 6241
00000060: 6599 5f40 b689 0640 a67e f73f 3631 7541
00000070: c401 ae3f b89a a440 b395 823f 2d7d 663f
00000080: 001d bb3f 9d50 b83f be52 5541 2a84 5841
00000090: b713 4c41 a513 c641 0a26 2341 962c 6541
000000a0: df1c f53a 7aa3 1640 8aab 4341 d15f 8440
000000b0: 7d28 0240 b5e7 d03f 5ce0 2740 4142 2e3f
000000c0: b8e3 283c 91d3 9f3f 015b de15 643e 1b41
000000d0: dbe8 ab3e d30f 4f41 7db1 c740 0bf4 b03f
000000e0: ffdc f63f 5909 0c41 b01a 0536 ca14 343f
000000f0: d1e5 3515 5883 b740 5350 923f 254d 1840
2.2040248e-23 10.469881 2.7705667 0.9075091 1.3977379 2.77394 2.6278117 0.85706955
0.9898803 2.9968488 16.395805 3.0152364 3.1546025 3.3013823 1.8960537 2.1620684
3.011566 3.414992 4.1079187 1.1819353 3.2553847 0.53573316 3.5669594 14.141072
3.4937375 2.1021552 1.9335525 15.324514 1.3594289 5.1438866 1.0201935 0.90034753
1.4618225 1.4399601 13.332701 13.532267 12.754813 24.759592 10.196787 14.323385
0.0018700621 2.3537278 12.22938 4.1366963 2.0337212 1.6320711 2.6230688 0.68069845
0.010308199 1.248644 8.9808665e-26 9.702732 0.33576092 12.941363 6.240416 1.3824476
1.9286193 8.752282 1.9834079e-06 0.7034422 3.6733952e-26 5.734783 1.1430763 2.3797085

encoders.1.maxpool_conv.1.double_conv.0.single_conv.2.running_var f4 [64]
00000000: 975b ba19 43c6 c842 e51f dc42 2bc6 b641
00000010: 7ed6 4e42 720e 0943 b83e e342 4073 c041
00000020: 80c8 bc41 244e 1343 9e3d da43 3df8 1843
00000030: 54f0 af42 b1c0 c442 5d27 7842 fefe 3142
00000040: ad4e 2042 6c64 5a43 ba04 8143 cb8a 3842
00000050: 18b0 8642 233d e240 3163 0543 85fa b642
00000060: d6b0 3e43 24f6 a442 f0fc a342 fb26 f743
00000070: f0e3 6142 91e0 a043 cb2d 0342 2a80 e041
00000080: 496d 0642 29e7 5e42 3046 0b44 afa1 8042
00000090: 6e84 8142 c421 1d43 f0d5 ca43 a3d1 fe42
000000a0: 70b4 da3b 040a f342 1728 8542 4dac 9342
000000b0: ba45 a342 5cf1 8442 640a fa42 e19d 4741
000000c0: 05e9 713d 5ab5 dc41 cd16 d215 57cd 9e42
000000d0: 9837 e440 df71 8d42 59d8 a743 00bd 4442
000000e0: 7f97 9142 5b99 e242 27ca 2736 5521 6d41
000000f0: 934e 1015 d163 af43 14a2 1542 c683 da42
1.9268942e-23 100.38723 110.062294 22.846762 51.709465 137.05643 113.6225 24.056274
23.5979 147.30524 436.48138 152.96968 87.96939 98.37635 62.03844 44.499016
40.07683 218.39227 258.03693 46.13554 67.34393 7.069963 133.38747 91.489296
190.69077 82.48074 81.99402 494.30453 56.472595 321.75443 32.79472 28.06258
33.606724 55.725742 557.0967 64.31579 64.75865 157.1319 405.6714 127.40945
0.006674342 121.51956 66.5783 73.836525 81.636185 66.471405 125.020294 12.476045
0.059060115 27.58855 8.48543e-26 79.401054 7.1317863 70.722404 335.69022 49.18457
72.79589 113.29952 2.5002607e-06 14.820638 2.9142553e-26 350.77982 37.40828 109.25737
